ver_20_model_type.pth (torch, 9843 bytes, 8 tensors)

weight f4 [8, 8]
00000000: 2a0d e9bc ddb0 9cbe 4279 88bd 1ba2 0dbd
00000010: d229 94be a254 9bbe a359 57bc 5aa3 3e3e
00000020: 7753 de3d 58f7 a33d 58ab d03c 8609 973d
00000030: ff85 1e3e 689d ed3d 13a6 ad3c 109f afbc
00000040: d74d b63e e3dd 1e3f c65c 5c3c 0f85 6e3e
00000050: 0e92 d03e 66a9 293f 7ac3 913d 608b 83bd
00000060: e783 77be ecaa 8abd 85c7 953d bff5 43be
00000070: acdb c63d 5dd5 59bc 1c5b 383d fd5c 37bf
00000080: 7c11 153e d80c 31bd 4265 a1bc 7680 5e3e
00000090: 5307 663e 9d4e 683d 7409 d33e 5748 b63d
000000a0: 753e 923e 420c 94bb 07a5 c73b b8a2 9f3e
000000b0: bb39 993d bf41 09be 66b5 fc3d 1ae8 843e
000000c0: 081f 113e 458d b63d 64f7 edbd 3806 bbbc
000000d0: 5933 70bd 303c 89bc d30d f5be c917 f3bd
000000e0: 8f12 c9bd 1d27 c63e d6a5 afbd db6d a5be
000000f0: 2a33 f13e 4592 a63e a399 a5bd 65bb d3be
-0.02844866 -0.30603686 -0.06663753 -0.034578424 -0.28938156 -0.30338007 -0.01314393 0.18617001
0.108557634 0.080061615 0.025472328 0.07374863 0.15480803 0.116022885 0.021197354 -0.021438152
0.35606262 0.6205732 0.013449853 0.23292945 0.4073643 0.66274107 0.07117362 -0.06423068
-0.2417141 -0.06770882 0.07313446 -0.19136713 0.09709868 -0.013295499 0.045008764 -0.71626264
0.14557451 -0.04322514 -0.019701604 0.21728691 0.22463731 0.056715596 0.4121815 0.089005165
0.28563276 -0.004518063 0.006092671 0.31178832 0.07481714 -0.13403986 0.123392865 0.2595833
0.14171994 0.08913664 -0.11619452 -0.022830114 -0.05864272 -0.016752332 -0.4786211 -0.11869771
-0.09817993 0.38701716 -0.085765526 -0.32310376 0.47109348 0.3253347 -0.080859445 -0.41353908

bias f4 [8]
00000000: e506 67bd 9602 063e 462b 11be 1ec5 113d
00000010: a28d 1e3d 8fd7 49be 7f67 2d3c e697 febd
-0.05640306 0.13086924 -0.14176664 0.035588376 0.03870929 -0.19711135 0.010583757 -0.12431316

weight f4 [64, 8]
00000000: 1e8d d73d 4a7f 49be 3574 de3d fa58 8d3c
00000010: 2528 bfbd 6e34 20be 1998 b23e 593d 68be
00000020: 9eda 80bd 8897 f33d 170d 913c 103a 6e3d
00000030: 304f 9c3d ccc3 2e3d 43fe 053f 73b7 f7bd
00000040: efe4 1abd 6154 d63d 3d42 323e 11a6 51bd
00000050: 0c58 663d 5824 d83d d9b4 d83d b68e 3f3e
00000060: 6316 dcbd 0b02 17be 2305 f83c e8eb 3fbe
00000070: 18fa c5bd 1c7f b2bd b645 e83d 4745 d9be
00000080: 6a3e 3dbe 5428 323d 4cb0 84bd 51ef 5cbc
00000090: c0f6 e03d a4f5 c0bd f71d a0be 9d5a 7dbd
000000a0: 563f eb3c 2dfe 3e3e 5e9f a43e 0a4a 10bd
000000b0: 2761 ba3d 1b0e 193e 1c87 cf3d 8a70 913e
000000c0: aa9d 903e f6ca cdbb a3e5 b93d 15b8 933c
000000d0: a1f5 193e af13 bc3e 2853 363e 768b b5bd
000000e0: e252 643e 4f84 12be fd8e 913d 6d80 2f3c
000000f0: 3a26 dfbd 83e9 abbc cb83 cd3e a3da d03d
00000100: ad48 a83e 5a6d 8dbe 26ac 933d 3550 113e
00000110: c539 6abc 522c 82bd 10cc 843e 2d7d aa3d
00000120: 1c22 4c3e 5d2b a4bd d07b 15be 1e4e 5fbe
00000130: 1b44 323d 6808 ef3d e9b5 8fbe 300c 8c3c
00000140: 63ce c63e b9f5 4ebe 1ff3 e23b cacc 29be
00000150: 3151 febb 5534 c53c 8c58 c13d 927b fa3c
00000160: 97e8 fdbd 7655 473d 20ea 0c3d f020 12bd
00000170: 6526 c6bd d054 6cbc a910 cb3e 181d 343e
00000180: 16b2 a7bc b12e aabc 4f62 e0be 31cb 87bd
00000190: c67d 88bd c07a b93b d8b3 8dbe 6330 6dbe
000001a0: f951 7c3e 95e7 f0bd a891 32bc 360b 2cbc
000001b0: 91bb 083b 35a3 2e3c 7f5e b13e 9624 50bd
000001c0: 3326 f2bd 92ef f83d b250 e3bc d8ac b8bd
000001d0: 2444 cfbd 5e01 533c e48b b93e 5e60 883d
000001e0: 0fd8 12bd 76bb 203e 40cc 1c3e bd51 d03d
000001f0: 5d5a e13d 04c8 4a3e 597d b13d a853 c83d
00000200: ae52 873e e799 7abe bfb1 06bd 02c6 323e
00000210: 86e8 383e 5fae 993d f73e 2d3c 6333 5abd
00000220: 3220 973e 459c f13c d552 af3c f74d c03d
00000230: 6ab6 393e 3a3e 973e 8c58 c4bc ec9b f5bd
00000240: e5a2 713e 56c7 bbbd d707 0d3d afc3 673d
00000250: 21fd 143e 0f8a 0abd b9f5 b9be 1a67 5ebd
00000260: 8a9a 0dbe 1862 53bd ec5d 97bd 4283 ec3e
00000270: dfbb 04be f524 9fbe a417 63be b181 8f3e
00000280: fcf2 54bd 4ec2 813d d8d3 503e 83d4 873d
00000290: 56fa 2cbe 1702 7cbd a48f 123d e030 123e
000002a0: 7c4b 5e3e e2e2 29be 950f 1fbc fe66 0cbc
000002b0: 6efc cd3d ccf4 5abe 67fa 02be cf9e 093c
000002c0: 359e b2bc 309e 413e a971 d63d 4164 bcbc
000002d0: 4760 c93c 1e2f 0d3e 20d8 813c 852f 5e3e
000002e0: 5e21 a73e b888 f6bc 9084 5d3c 3b32 e53c
000002f0: 1637 883e e610 a43e 9d53 4e3e 519d 9fbd
00000300: ce69 25bd 2088 563d 0383 2a3d 7971 0cbf
00000310: 6ee9 53be b46b 02be b5aa 8a3e 6eef 0bbd
00000320: 3b8f 5dbe 9abe d93d ba3e 91be 6103 87be
00000330: 2206 38be 02c8 d3bd be44 883d 0cd7 71bc
00000340: bc8c 7d3e 9484 47be 073d f43c f6cd 723e
00000350: d2b7 1dbb 4282 4fbd 05a7 a0bd 1116 fdbd
00000360: b151 dfbd 7348 22be cd60 cebe 34e1 273e
00000370: c2d6 84be 667e fcbc 2fae d33e 1498 78be
00000380: 1b79 86be 895d 25bd 11f5 a0bd eb38 f3bd
00000390: 2158 0fbe 2e2a 94bd 3586 0e3d 3774 babd
000003a0: 64a5 d53d e9ae 6c3e 637d a23e 8594 503e
000003b0: 3e5a 5d3e a60b 603e 8cda 9dbd f272 193e
000003c0: 4052 48bd 07a8 ca3d 9e76 303e 5fc9 27bd
000003d0: e076 f23c 64c1 073e a87a a53d 551a 213e
000003e0: a705 bebd 43ef 83bd f4e6 8c3c 4e29 95bc
000003f0: 05c0 f5bd 2f09 923d ed03 853e 6782 763e
0.10524963 -0.19677463 0.108620085 0.017254341 -0.09333829 -0.15645 0.34881666 -0.22679652
-0.06291698 0.11894137 0.017706437 0.05816084 0.07632291 0.042667195 0.523411 -0.12095537
-0.037815984 0.10465313 0.1740808 -0.051183764 0.05623631 0.10553807 0.10581369 0.18706784
-0.107464574 -0.14746873 0.030275887 -0.18742335 -0.09666842 -0.087156504 0.11341421 -0.42435667
-0.1848084 0.04349549 -0.064789385 -0.013484792 0.10984564 -0.09421852 -0.3127286 -0.061853994
0.028716724 0.18651648 0.32152838 -0.03522686 0.091005616 0.14946787 0.10133192 0.28406173
0.28245288 -0.0062802983 0.09077003 0.018032113 0.15035106 0.36733767 0.17805159 -0.08864491
0.22297242 -0.14308284 0.07107351 0.010711771 -0.10895963 -0.02098537 0.40139613 0.10197952
0.32867947 -0.2762249 0.07210569 0.14190753 -0.014296 -0.0635611 0.25936937 0.08324657
0.19934887 -0.080160834 -0.14598012 -0.21807143 0.04352198 0.11671525 -0.28068474 0.017095655
0.38829336 -0.20210923 0.006925955 -0.16582027 -0.0077611436 0.024072805 0.09440717 0.030576501
-0.123978786 0.048665486 0.034402966 -0.035675943 -0.09675292 -0.014424518 0.39661148 0.17589223
-0.02047066 -0.020774217 -0.43825004 -0.066305526 -0.066646144 0.005660385 -0.27676272 -0.2316299
0.24640645 -0.11762921 -0.010898985 -0.01050072 0.0020863751 0.010659029 0.34642407 -0.05081614
-0.11823692 0.121550694 -0.02774844 -0.09017342 -0.10120419 0.012878744 0.3623954 0.066590056
-0.03585058 0.1569651 0.1531229 0.1017184 0.110035636 0.19802862 0.08666486 0.09781581
0.26430267 -0.24472772 -0.032884356 0.17458346 0.1805745 0.07503962 0.010574094 -0.053271662
0.2951675 0.02949346 0.021401802 0.093898706 0.18135992 0.29539663 -0.023968004 -0.1199263
0.23597296 -0.0916888 0.034431305 0.056583103 0.14549686 -0.03382307 -0.36320284 -0.054297544
-0.13828483 -0.05160722 -0.07390961 0.46193892 -0.12962292 -0.31082883 -0.22176987 0.28028634
-0.05198954 0.06335889 0.20393312 0.0663233 -0.1689237 -0.06152543 0.035781518 0.14276457
0.21708483 -0.16590455 -0.009708305 -0.008569477 0.10057913 -0.21382445 -0.12790833 0.008399679
-0.021803955 0.18908 0.10470898 -0.022997024 0.024582041 0.13787505 0.015850127 0.21697815
0.32642645 -0.03009449 0.013520375 0.027978053 0.26604527 0.32044142 0.20149083 -0.077936776
-0.040384106 0.052375913 0.04162885 -0.54860646 -0.20694515 -0.12736398 0.27083364 -0.034163885
-0.2163667 0.106320575 -0.2836817 -0.26369765 -0.1797109 -0.10340883 0.066537365 -0.014760744
0.24760717 -0.19484168 0.029814256 0.2371138 -0.0024065864 -0.050661333 -0.078443564 -0.123577245
-0.10904253 -0.1584795 -0.40308228 0.16394502 -0.25945097 -0.03082199 0.4134383 -0.24276763
-0.2626427 -0.040372405 -0.07859243 -0.118760906 -0.13998462 -0.07234608 0.03479596 -0.091041975
0.104319364 0.23113598 0.31736287 0.20369156 0.21616456 0.21879444 -0.077077 0.14985254
-0.048906565 0.0989533 0.17232749 -0.040963527 0.0295977 0.13257366 0.080800354 0.15732701
-0.09278422 -0.0644212 0.01719997 -0.018208172 -0.119995154 0.07130658 0.25979558 0.24073182

bias f4 [64]
00000000: f41c 993d e0f3 06be 162d 2dbd 2792 a93d
00000010: b543 0d3c b426 14bd 889f d5bc 14e0 363d
00000020: 1d10 a7bd 9336 ecbc a090 46be 3646 393d
00000030: 6ee1 393c c502 533c 9754 bbba 12c7 58bd
00000040: a9bc 48bc b736 79bd d70c 553d d358 62bc
00000050: b3b5 c83d 234a 783d 0188 d7bd 8ef2 9ebd
00000060: b522 3a3d af08 8ebd 11ac 023d 3d86 2c3c
00000070: 907e cdbd 4cf5 043e cf13 c2bc a26b 93bd
00000080: fd7d 2d3c 1444 0e3d 01cb abbc c20c 353d
00000090: 5f4f 23be 51c3 543d 5dfe 863a 9f1b 023e
000000a0: 10c5 fdbd d09a 703c 2b67 7c3d a846 403d
000000b0: 1410 87bc 6997 e0bd b97a 95bc 422c 3fbd
000000c0: 4652 20bd 5f13 253d 9e29 f53d ca7c 7fbd
000000d0: 277b 9c3d 794e 8b3d fc20 ccbd c7a8 84bc
000000e0: 103c 383d 1225 653d 3d2d 883a 59b1 593c
000000f0: 8e79 b63c d548 193e e61c 843d 4e80 173e
0.074762255 -0.13178968 -0.042279325 0.082798295 0.0086221 -0.036169723 -0.026077047 0.04464729
-0.0815737 -0.028834617 -0.19391108 0.045232974 0.0113452505 0.012879078 -0.0014292178 -0.052924223
-0.012252011 -0.060843196 0.0520142 -0.013815123 0.098002814 0.060617577 -0.105239876 -0.077611074
0.045443255 -0.0693525 0.031902377 0.010530052 -0.100339055 0.12984198 -0.023691086 -0.07198264
0.01058912 0.034732893 -0.020970823 0.04420162 -0.15948246 0.05194408 0.0010299195 0.12705849
-0.12391102 0.014685348 0.061621826 0.046942383 -0.016487159 -0.10966379 -0.018246995 -0.046673067
-0.039140962 0.040301677 0.119708285 -0.062374867 0.07640677 0.06802077 -0.09967229 -0.01619376
0.044979155 0.055943556 0.0010389459 0.013286912 0.022274759 0.1496919 0.064508244 0.14795038

weight f4 [8, 64]
00000000: cf4c 893c b87a c2be 4859 013e 03e0 313e
00000010: 5cf1 35be 7d81 1b3e 9be6 f6bd fed7 9a3c
00000020: 6169 c13c 7e3e c2bd 9bcf 36be f0b5 053e
00000030: 97ec 823d e386 0bbe 9941 27bc e35b 613d
00000040: f06d 30be a83c 64be 5e11 67bc afbe 543d
00000050: 18c6 623e 0477 d0bb d14a f93d 79c2 b6be
00000060: 8df0 d23d fc2a 8dbd c6a4 0abd 3d27 a83d
00000070: c065 1ebd fefc 5f3d e23d 943d fa4c 3a3e
00000080: 2384 853e 0de2 f3bd 2479 60bd fb0c 883d
00000090: cbc9 b8bd e161 62bc dafa a63c 4044 ba3d
000000a0: 69a1 ec3d bd9d 5b3b 02e8 113e 036c bdbd
000000b0: 1cd4 33bd a5c4 333d 7660 15bd 371e f2bd
000000c0: c90d 17be 0408 da3d ef6b 1f3e a553 663d
000000d0: 1afe 623e e822 25bd 6640 133d 99d4 7cbe
000000e0: 528a 253d 0b6f 3bbd 1807 5cbe 40c2 9a3d
000000f0: eb35 20bd bd18 e53c a6fc a5bc f016 95bd
00000100: 32e9 56ba dc3e 7abe 5e8d 383d 0b80 063e
00000110: 7ddc 0bbd f728 173d 274b 58be 9b38 29bd
00000120: 10e4 c03d 5259 71be 7d71 63be 5638 3abd
00000130: 4fdf 1d3b 8eb6 21be 3da8 49be e749 443d
00000140: cb4c bb3c db14 e2bd d678 373e cdeb 7a3e
00000150: 985b 423e ff6e 283c cf8a a03d e691 b0be
00000160: aba6 d4be 7612 27be 491a 123e 0e12 153d
00000170: 8cf6 3e3b bc41 113d 9a7a 033d 221c cc3d
00000180: 166a 183e 2586 b8bd 1341 7ebe 574d 8ebd
00000190: 8491 99be 4243 97bc fb8e cebd 8f23 0f3e
000001a0: 3d51 e83d 92d0 34bd 7147 733d 498b 7f3c
000001b0: 3de5 d0bc 246c 77bd 4db1 cb3c 0846 12be
000001c0: a81f d1bd 37c8 853e a251 083e 9504 623e
000001d0: 7cc5 a83e 29f9 4abd 62cf 5c3e 64ca e4bd
000001e0: c73c 97bc 3448 15bc 4ef7 59bd c9d0 6d3c
000001f0: b0c0 79be e866 963e 6f7c 953d d1b0 a6bd
00000200: bf0e 6bbe ab59 84be 474e ff3d 7f86 c1be
00000210: 0114 ea3d fcc5 0f3e 3b68 dd3d 9579 6ebe
00000220: 18a2 22be 784f 4bbd 545d 01bd e672 17be
00000230: 7395 153e b077 b4bd acff 76be 26b3 e03d
00000240: c94b a43c 1c61 d13d 1612 703e 3d9b 5fbd
00000250: b6ae 973d 9563 ec3d 6a61 1a3e 0010 c33d
00000260: 29ba 9cbe 4f83 13bc cec2 753a 8cab 483d
00000270: 73f4 e8bd 4ac2 1d3e 2ceb 023e 8b99 5abe
00000280: be39 3b3d ab63 d43d f86c 97be fb40 90be
00000290: 02e8 58be 1697 d9bd b1cb 95be f957 bdbd
000002a0: be5c 0d3e 985d 4f3e 3750 debd 9156 523e
000002b0: 27e6 82bd 8ed7 5f3d 7f6e 0cbe 9586 8cbd
000002c0: bd0b ecbd 1ed9 373d 04fe f7bc a616 8cbc
000002d0: 6652 ad3c 19d8 053e 7bc8 eabd 2d56 1fbe
000002e0: 71f7 453e d3dc 043e 7aec c3be 3a41 193e
000002f0: 6e6d 89bc 50a0 973e f21b 1bbd a914 143e
00000300: 0948 9d3d 08f6 84be 7acd 17be 76e4 89bd
00000310: ae9b debc 71e8 e0bd 7805 983d 4ab7 ea3d
00000320: b8d7 563e abf2 0e3e 6ea3 a83e 044e 00be
00000330: 6089 f8bd 070e 1f3e c49b 81be 9d3f a6bd
00000340: f2a9 ce3e 0e66 2a3e eec4 8f3e d1e9 913d
00000350: c585 13be 8ae7 8f3e 3565 20be a1ef 543e
00000360: 5a0d 96be 5b55 4ebe c9f2 423e e5cc cfbd
00000370: a134 1fbe d1dd 883b f2f4 22be c46e 4fbe
00000380: 8837 e3be daad 433d cd37 c3be 400f b4bd
00000390: 8002 9f3d 5171 243e 1458 62be e2eb 743d
000003a0: e50c 19be 355e 223e 6658 0ebe 32f8 f8bc
000003b0: eaa7 0c3e e3f1 d3bd 3419 db3d 8830 60be
000003c0: aaeb 123e 4214 893d 01a6 4c3d e278 8f3e
000003d0: 5847 3e3c 91df bbbd e80d 933d 2835 40be
000003e0: e891 85bc c541 2c3d 6be9 10be 5d8b d4bd
000003f0: 7d20 253c 9958 983e ef7e 593e d670 3f3c
0.016760258 -0.37984252 0.12631714 0.1737061 -0.17767853 0.15186115 -0.12055703 0.018901821
0.023609819 -0.09484576 -0.17852633 0.13057685 0.06392782 -0.13625674 -0.010208511 0.05501927
-0.17229438 -0.22288764 -0.014103262 0.051939663 0.2214588 -0.006361844 0.12172473 -0.35695246
0.10299788 -0.06892964 -0.033848546 0.08210609 -0.038671255 0.05468463 0.07238366 0.18193427
0.26077375 -0.1190835 -0.05480303 0.06643101 -0.09022864 -0.013817281 0.020383287 0.09095049
0.11554224 0.0033510767 0.1424866 -0.09249117 -0.043903455 0.043888707 -0.036468945 -0.11822169
-0.14751352 0.1064606 0.15568517 0.056232113 0.22167245 -0.040316492 0.035950087 -0.24690475
0.040415116 -0.045760196 -0.21487081 0.075565815 -0.03911392 0.027965898 -0.020262074 -0.072797656
-0.0008198201 -0.24438041 0.045056693 0.13134782 -0.03414582 0.0369043 -0.21122418 -0.04131375
0.094184995 -0.23569229 -0.22211261 -0.045463882 0.00240894 -0.15792295 -0.19693084 0.04792204
0.022863766 -0.11039134 0.17917189 0.24504013 0.18980253 0.01028037 0.07838976 -0.34486312
-0.41533408 -0.16315636 0.1426784 0.03639417 0.0029138653 0.03546308 0.032099344 0.099663034
0.14884219 -0.09009961 -0.24829511 -0.06948345 -0.29993832 -0.018464688 -0.10085865 0.13978408
0.1134362 -0.04414422 0.059394304 0.015597173 -0.025499934 -0.060405865 0.024864817 -0.14284527
-0.10211116 0.26129314 0.1331239 0.2207206 0.3296317 -0.049554024 0.21563485 -0.111714154
-0.018461598 -0.009111453 -0.053214364 0.01451511 -0.2438991 0.29375386 0.072991244 -0.08139194
-0.22954844 -0.2584966 0.12466102 -0.37797925 0.11429597 0.14040369 0.10810896 -0.23288567
-0.15882146 -0.049636334 -0.031583145 -0.14789924 0.14607792 -0.08811891 -0.24120969 0.1097167
0.020055668 0.102236 0.23444399 -0.054591406 0.0740637 0.11542431 0.15076223 0.09524536
-0.3061078 -0.009003474 0.00093750365 0.048991725 -0.1137475 0.15406147 0.12785023 -0.21347634
0.045709364 0.10370573 -0.29575324 -0.28174576 -0.21182254 -0.106245205 -0.29256967 -0.09245295
0.1380491 0.20250547 -0.108551435 0.20540835 -0.06391554 0.05464893 -0.13714026 -0.06861607
-0.115256764 0.044884793 -0.030272491 -0.017100643 0.021157455 0.13070716 -0.1146402 -0.15560217
0.19332673 0.12974863 -0.38266355 0.14966288 -0.016775813 0.29614496 -0.037868448 0.14461006
0.07679755 -0.25968957 -0.14824477 -0.067330286 -0.027173843 -0.10981835 0.07422918 0.11460741
0.20980728 0.13959758 0.32937187 -0.1252976 -0.12135577 0.15532695 -0.25314152 -0.08117602
0.40364033 0.16640493 0.28079933 0.07124675 -0.14406498 0.28106338 -0.15663607 0.20794536
-0.2930706 -0.20149748 0.19037928 -0.101465024 -0.1554742 0.004176833 -0.15913752 -0.20257097
-0.44378304 0.04777322 -0.3812851 -0.08791971 0.07764149 0.16058852 -0.22103912 0.059795268
-0.14946325 0.1585625 -0.13900909 -0.030391786 0.13735929 -0.103488706 0.106981665 -0.21893513
0.14347711 0.06693317 0.049963 0.28021914 0.011613689 -0.09173501 0.07180387 -0.18770278
-0.016304925 0.04205491 -0.14151542 -0.10378144 0.010078547 0.29755095 0.21239828 0.011684617

bias f4 [8]
00000000: 5ba9 4e3d 75a4 cebc db25 523d a44a d03d
00000010: 3cbd 4c3c dc4b b93c 1307 003e 7dc9 c43d
0.05045448 -0.025224904 0.051305633 0.101704866 0.012496289 0.02261918 0.12502699 0.09608743

weight f4 [8, 8]
00000000: 1d5d abbe 7fca 7ebe 3080 293d d870 3abe
00000010: e975 e93c 9345 6fbe 1476 b63e 3bfd 1abe
00000020: e13d ab3e 78f4 653b 7918 dc3d 4b1f efbe
00000030: f9b3 033e a2c6 3fbd 026e 213e 0221 00be
00000040: b923 8335 9843 b5b4 30d3 16b5 aa5c d234
00000050: e881 84b4 f660 22b5 66b1 df34 01cb 15b4
00000060: 459c 52be 3446 77be 7221 a23e c985 35be
00000070: 47fc 1ebe 3965 b1be 06c1 1e3e 24dc f8bd
00000080: d249 653e 7cea 183e a88d f43d 60a5 ccbe
00000090: e8eb 383e 5cd1 67be 1b78 113e 3c49 59be
000000a0: f206 a73e 9ce0 95bb 56b0 b13d 8238 e9be
000000b0: 6925 0d3e d33f ffbc 8d95 353e 82c2 13be
000000c0: 901f 153b a633 263e b71c 623e 550c b63d
000000d0: 0d3a dcbe 38a3 e83c 7bef 453e 5ec0 fcbe
000000e0: 759a b4bd 88ac 92be d679 2a3d 988c b23b
000000f0: 1e59 9abe 1525 453f 1a0d 2c3e 5d49 1cbe
-0.33469477 -0.24881934 0.041382015 -0.18207109 0.028498607 -0.23366384 0.3563696 -0.15135662
0.33445647 0.0035088342 0.10746855 -0.46703562 0.12861623 -0.04682029 0.15764621 -0.12512591
9.770657e-07 -3.3763058e-07 -5.618667e-07 3.918297e-07 -2.4681435e-07 -6.04908e-07 4.166606e-07 -1.3950559e-07
-0.20567425 -0.24147874 0.31666142 -0.17726816 -0.15525924 -0.3464754 0.1550332 -0.121513635
0.22391441 0.14933199 0.11941081 -0.3996992 0.18058741 -0.22638458 0.14205973 -0.21219343
0.32622486 -0.0045738947 0.086762115 -0.45550925 0.13783802 -0.031158363 0.1773283 -0.14429668
0.0022754408 0.1623064 0.22081266 0.08889071 -0.4301304 0.028398141 0.19329636 -0.49365515
-0.08818523 -0.28647256 0.041620098 0.005448889 -0.30146116 0.7700971 0.16801873 -0.15262361

bias f4 [8]
00000000: 8039 db3d 83ec 95bd 9b33 5ab4 5445 9f3d
00000010: b1b8 ddbd 402a 8cbd dd9a bcbd 1a5c 163e
0.10704327 -0.07320502 -2.0321606e-07 0.07776895 -0.10826243 -0.06843996 -0.09209225 0.14683571
